cnn/cnn.tflite (tflite, 12624 bytes, 10 tensors)

sequential/dense/BiasAdd/ReadVariableOp f4 [14]
-0.000533994 0.0164079 -0.0011406536 -0.016180532 -0.0018233304 -0.0014650291 0.0063985474 0.010848319
0.019114392 -0.008793527 -0.0032621261 0.0014536929 0.03997587 -0.01476497
00000000: bbfb 0bba dc69 863c fc81 95ba 098d 84bc
00000010: d1fc eeba 3806 c0ba e8aa d13b 26bd 313c
00000020: c995 9c3c ba12 10bc 65c9 55bb d789 be3a
00000030: bdbd 233d c6e8 71bc

sequential/dense_2/BiasAdd/ReadVariableOp f4 [2]
0.012386007 -0.012385999
00000000: aeee 4a3c a5ee 4abc

sequential/dense_1/BiasAdd/ReadVariableOp f4 [222]
0.023254065 0.028421788 0.016778253 0.020547535 -0.0067289555 -0.014783467 -0.016109243 0.0040050554
-0.009009965 -0.013203955 -0.024271077 0.013055047 -0.030324755 -0.01876279 -0.018075002 0.0107280705
0.002374343 0.004797368 -0.013885786 0.011055733 0.011643529 -0.03366597 0.0064795315 -0.021380985
-0.011731383 0.0028857356 -0.014186382 -0.012365184 0.014035486 0.009062364 -0.017956251 0.010643238
0.012171866 -0.007856774 -0.012768145 -0.017814705 -0.034746226 0.014679698 -0.008332908 0.012799108
-0.007893802 -0.014752354 -0.013290225 0.012429305 -0.009821933 -0.011807871 0.010458493 -0.016400259
0.009083953 -0.0007569544 -0.0049873157 -0.01370588 -0.0115698 0.01864556 0.017293574 0.011356651
0.0051937904 -0.012489668 -0.013380016 -0.014079205 -0.016836498 -0.007023407 -0.017442496 -0.01697972
-0.014653928 0.015196296 -0.030774869 0.005547101 -0.012750407 0.012564814 -0.01737023 -0.010216532
-0.013172404 -0.008742305 -0.0106689865 -0.01578841 0.014479243 0.008336533 -0.019918498 0.012086233
-0.011526335 0.016910989 -0.011894487 -0.005549578 0.029510433 0.011843493 0.0064377105 0.012168397
0.018636743 0.050090056 0.009370645 -0.015646096 -0.013105846 0.012996286 -0.013474455 0.037115585
0.023208985 -0.009195457 -0.0058498 -0.005754185 -0.0034905311 0.014174123 -0.0025687194 -0.0147996135
-0.009592734 0.01386933 -0.033435024 -0.0070168935 -0.013778571 0.014816805 0.012089791 0.012431711
0.014964984 0.012427852 -0.013882872 -0.010670043 -0.012204868 0.0040291976 0.011307972 0.011012635
-0.014926228 0.01133695 0.019563064 0.007877051 -0.011378563 -0.004901668 -0.035421595 -0.005618355
-0.014418457 -0.007915211 -0.001398381 0.004363145 -0.018264245 0.02248182 0.02007074 -0.011669971
-0.025654845 -0.014273527 -0.0060648806 0.029213857 -0.01658747 -0.018615272 -0.010758463 0.0046482277
0.011661415 -0.014702444 -0.009719471 0.012758223 -0.01787138 0.0036474054 0.0097445175 -0.012926159
0.01690102 0.010339128 -0.0062002675 -0.011448194 -0.01037185 -0.004857871 -0.013114106 0.01869061
-0.014186326 -0.0037842381 0.017694417 0.011855959 -0.010387852 0.0037004543 -0.017416684 -0.012526258
0.04413285 0.014966436 0.014218693 0.014572385 -0.015546521 -0.012929959 -0.008885991 0.019352311
0.01384355 -0.0030455007 0.0125738755 -0.015387548 -0.013416384 0.014593617 0.013240588 0.021943735
-0.013425581 -0.009265647 -0.019583287 0.018629398 -0.00766785 -0.006523098 -0.010323154 -0.013002377
-0.0067789927 -0.010504185 0.014112731 -0.002358756 -0.013764132 0.038580123 0.01062069 -0.023462366
0.021774454 0.011048364 0.018175611 0.011769476 -0.007779011 0.020479549 -0.012482694 -0.0064694528
0.05294613 -0.0069284663 0.019559136 0.0128522 -0.011667459 -0.009452361 -0.0035357415 -0.0143184485
-0.009057958 -0.022525372 0.011137108 0.0037581723 -0.0118892575 0.0020759462
00000000: 4f7f be3c cfd4 e83c 8c72 893c 4e53 a83c
00000010: 927e dcbb 5b36 72bc 88f7 83bc d73c 833b
00000020: 889e 13bc 6755 58bc 23d4 c6bc d6e4 553c
00000030: 9f6b f8bc 6cb4 99bc 0712 94bc cac4 2f3c
00000040: de9a 1b3b 3d33 9d3b 3581 63bc 1b23 353c
00000050: 80c4 3e3c 54e5 09bd 4052 d43b 2d27 afbc
00000060: fd34 40bc 9c1e 3d3b 006e 68bc 5797 4abc
00000070: 18f5 653c 4f7a 143c fd18 93bc fa60 2e3c
00000080: 826c 473c b3b9 00bc 7b31 51bc 25f0 91bc
00000090: 0f52 0ebd 1e83 703c c086 08bc 5ab3 513c
000000a0: 0155 01bc dbb3 71bc 3ebf 59bc 49a4 4b3c
000000b0: 2cec 20bc cd75 41bc 195a 2b3c d659 86bc
000000c0: dcd4 143c 5a6e 46ba a36c a3bb a18e 60bc
000000d0: 428f 3dbc 93be 983c 41ab 8d3c 3f11 3a3c
000000e0: ac30 aa3b 77a1 4cbc db37 5bbc 77ac 66bc
000000f0: b2ec 89bc 9c24 e6bb 91e3 8ebc 0e19 8bbc
00000100: 0717 70bc e3f9 783c 941b fcbc 75c4 b53b
00000110: 15e7 50bc a6dc 4d3c 034c 8ebc 3e63 27bc
00000120: 11d1 57bc e33b 0fbc f9cc 2ebc b256 81bc
00000130: 593a 6d3c f495 083c 1e2c a3bc 5605 463c
00000140: f4d8 3cbc ea88 8a3c 18e1 42bc 3cd9 b5bb
00000150: ddbf f13c 360b 423c 6ef3 d23b f55d 473c
00000160: 15ac 983c 3b2b 4d3d 5587 193c 3e2c 80bc
00000170: e7b9 56bc 60ee 543c f6c3 5cbc 8306 183d
00000180: c520 be3c 8ba8 16bc aeaf bfbb 9a8d bcbb
00000190: 65c1 64bb 953a 683c f657 28bb 147a 72bc
000001a0: d82a 1dbc 303c 633c 2af3 08bd f8ed e5bb
000001b0: 84bf 61bc 2fc2 723c 4214 463c 60ae 4b3c
000001c0: b12f 753c 309e 4b3c fc74 63bc 67d1 2ebc
000001d0: edf6 47bc 5c07 843b 1245 393c 576e 343c
000001e0: 238d 74bc 9dbe 393c b842 a03c bf0e 013c
000001f0: 276d 3abc 2c9e a0bb 3c16 11bd 2d1a b8bb
00000200: 643b 6cbc cdae 01bc e149 b7ba b7f8 8e3b
00000210: e69e 95bc cb2b b83c 646b a43c 6833 3fbc
00000220: 1c2a d2bc 83db 69bc e8bb c6bb e651 ef3c
00000230: 72e2 87bc 0e7f 98bc 4444 30bc 2950 983b
00000240: 850f 3f3c 85e2 70bc 6b3e 1fbc de07 513c
00000250: 0067 92bc 4f09 6f3b 78a7 1f3c 3ec8 53bc
00000260: 0274 8a3c 7265 293c 9d2b cbbb 3591 3bbc
00000270: b1ee 29bc c72e 9fbb 8cdc 56bc 0d1d 993c
00000280: c46d 68bc fb00 78bb e2f3 903c 7f3f 423c
00000290: cf31 2abc 5283 723b 6fad 8ebc ef3a 4dbc
000002a0: a6c4 343d c835 753c 85f5 683c 03c1 6e3c
000002b0: d6b6 7ebc 2ed8 53bc 8c96 11bc bd88 9e3c
000002c0: 0fd0 623c 0697 47bb a802 4e3c 0e1c 7cbc
000002d0: 65d0 5bbc 111a 6f3c 0def 583c 59c3 b33c
000002e0: f8f6 5bbc f1ce 17bc 216d a0bc ae9c 983c
000002f0: 9642 fbbb b6bf d5bb 7222 29bc ec07 55bc
00000300: 5022 debb bf19 2cbc 1639 673c 5c95 1abb
00000310: f482 61bc 3106 1e3d 6702 2e3c 2634 c0bc
00000320: 5760 b23c 3304 353c 05e5 943c c3d4 403c
00000330: 13e7 febb bac4 a73c 3784 4cbc b4fd d3bb
00000340: 0bde 583d 3008 e3bb 7b3a a03c 0992 523c
00000350: df28 3fbc 13de 1abc e6b7 67bb ed97 6abc
00000360: d467 14bc 2187 b8bc 6b78 363c ab4b 763b
00000370: 29cb 42bc 990c 083b

sequential/conv2d/BiasAdd/ReadVariableOp f4 [3]
-0.03420749 -0.013427861 -0.05584074
00000000: 271d 0cbd 8800 5cbc 43b9 64bd

sequential/dense_2/MatMul f4 [2, 222]
-0.06690049 0.036328074 -0.109624706 -0.112155445 -0.092974946 -0.23769693 -0.16085522 0.014524067
-0.14191847 0.0307249 0.04548146 0.15659148 -0.0666807 0.13161533 -0.018225672 -0.07237952
0.17746153 0.06274624 -0.18456586 0.11909604 0.26967445 0.025677564 -0.047217827 0.047147047
-0.09627708 0.17987725 0.017826792 -0.080473654 0.07694856 0.11234487 -0.002555504 0.1731271
-0.06460553 -0.09162421 -0.19309357 0.012693435 -0.051994327 -0.040325623 -0.14291804 0.1975656
-0.09741714 -0.08220201 -0.16497658 0.21967785 -0.28114465 0.12394873 0.09625395 -0.032690935
0.30631638 0.27007625 -0.27457666 -0.18697532 -0.03169046 0.03717388 0.17952918 0.05078432
0.21915035 -0.15974624 -0.110261306 -0.19597687 0.03577504 -0.2597296 -0.087628685 0.08124287
-0.11184858 0.22971761 -0.020609962 -0.037084684 0.028876137 0.06046856 -0.15881792 -0.25233078
-0.16176566 0.05389999 -0.08130996 -0.050450057 0.057551894 0.055215374 -0.046061177 0.074335866
-0.118595995 0.024346882 -0.23653705 -0.07854652 -0.033195622 0.027947325 0.2903747 0.05207081
-0.087830424 -0.0473292 0.1401818 -0.039254438 -0.13850199 0.11010873 -0.08921357 0.013437387
-0.099888876 -0.12495279 -0.15958633 -0.02171094 -0.2744536 0.06514073 -0.07834696 -0.16068394
-0.08908467 0.11179633 0.17825831 -0.049436353 -0.0935171 0.22084132 0.048500985 0.06932917
0.041191068 0.093960695 0.21343249 0.042559776 -0.0764475 0.19439445 0.20614465 0.024391474
0.098679684 0.08656069 -0.021303345 0.009644113 -0.1260595 -0.082761504 0.110326454 0.027358053
0.114816144 -0.1278749 -0.07878822 -0.00081404165 -0.03576176 -0.15820241 -0.0076977764 -0.23120113
0.040145412 -0.043956067 -0.31191757 0.06512705 -0.078343086 0.0010381372 -0.15651903 0.23586144
0.09706584 0.025840672 -0.18884785 -0.060898308 0.039751884 0.15601055 0.14591701 -0.09382671
0.04366504 0.10645436 -0.19300951 -0.19857103 -0.092912026 -0.21642902 0.023364104 0.041237667
-0.04122785 -0.04872652 -0.06716395 0.05230202 0.008029381 0.06948043 -0.05688828 -0.22691514
-0.054059 -0.008598868 0.14389075 0.083286576 -0.028660247 0.025794854 0.030346697 -0.008461695
0.024346976 -0.09813599 0.13634667 -0.021255353 -0.14688581 0.04329344 -0.065397866 0.0057223397
-0.040797923 -0.27534872 0.12297156 0.09776938 -0.13012058 -0.054153096 -0.126913 -0.10547641
0.011464278 -0.29600447 0.06695615 -0.1891079 -0.07159786 -0.20498766 0.22024271 -0.014461927
-0.13809024 0.034225114 0.009794788 0.013116474 -0.23436332 0.11607084 -0.22885564 -0.17498194
0.082376376 -0.03674357 -0.04777565 0.1259245 -0.021367926 -0.13686691 -0.08735312 -0.025039576
-0.025802609 0.07627542 0.12666215 0.19779709 -0.08318681 -0.19134949 0.0021641483 0.16487007
-0.17469877 -0.011333637 0.044405412 0.24972649 0.092603825 -0.010704769 0.012335104 0.11916876
-0.037021372 -0.08426181 -0.00214904 0.061871223 0.052411593 -0.15675968 -0.18264076 -0.044264
0.1323551 -0.056242477 -0.21789502 -0.19153924 -0.036765836 -0.013280643 -0.1365907 -0.107687466
0.120028846 -0.06527698 -0.23588519 -0.12595446 0.028624311 -0.2790493 -0.12216121 0.13035993
00000000: 2003 89bd bfcc 143d eb82 e0bd c1b1 e5bd
00000010: a669 bebd d366 73be 3bb7 24be 5af6 6d3c
00000020: 1353 11be c9b2 fb3c c44a 3a3d 8459 203e
00000030: e48f 88bd 2bc6 063e 014e 95bc b73b 94bd
00000040: 7ab8 353e 1a81 803d d5fe 3cbe a0e8 f33d
00000050: c512 8a3e c159 d23c 7b67 41bd 431d 413d
00000060: eb2c c5bd be31 383e 7e09 923c 5fcf a4bd
00000070: 3597 9d3d 1115 e63d 3e7a 27bb 3b48 313e
00000080: e74f 84bd 79a5 bbbd 52ba 45be 20f8 4f3c
00000090: 01f8 54bd 7b2c 25bd 1b59 12be a34e 4a3e
000000a0: a382 c7bd 8759 a8bd 9fef 28be 3bf3 603e
000000b0: 31f2 8fbe d5d8 fd3d ca20 c53d eee6 05bd
000000c0: 80d5 9c3e 6f47 8a3e 5095 8cbe 7576 3fbe
000000d0: dbcd 01bd a343 183d 7fd6 373e 3803 503d
000000e0: f368 603e 8594 23be aed0 e1bd 29ae 48be
000000f0: d988 123d 47fb 84be ab76 b3bd a962 a63d
00000100: de10 e5bd 183b 6b3e 39d6 a8bc 1ce6 17bd
00000110: a68d ec3c e1ad 773d 2aa1 22be 8031 81be
00000120: e6a5 25be 3cc6 5c3d d685 a6bd b8a4 4ebd
00000130: 89bb 6b3d 8429 623d a5aa 3cbd 673d 983d
00000140: 75e2 f2bd 1d73 c73c c536 72be ffdc a0bd
00000150: 22f8 07bd caf1 e43c feab 943e 3448 553d
00000160: 70e0 b3bd 43dc 41bd d18b 0f3e 43c9 20bd
00000170: 77d3 0dbe b080 e13d 9bb5 b6bd 7c28 5c3c
00000180: 8a92 ccbd 40e7 ffbd 996a 23be 24db b1bc
00000190: 2f85 8cbe 8168 853d 5f74 a0bd 558a 24be
000001a0: 0672 b6bd 79f5 e43d 5989 363e c67d 4abd
000001b0: e585 bfbd 3a24 623e f8a8 463d 74fc 8d3d
000001c0: f7b7 283d 776e c03d 0c8e 5a3e 2953 2e3d
000001d0: 8290 9cbd 570f 473e 9517 533e a1d0 c73c
000001e0: 9318 ca3d bb46 b13d 5a84 aebc 5702 1e3c
000001f0: be15 01be dd7e a9bd d6f2 e13d ff1d e03c
00000200: ba24 eb3d a3f1 02be b85b a1bd 6965 55ba
00000210: ec7a 12bd d0ff 21be a13d fcbb fdbf 6cbe
00000220: 846f 243d 470b 34bd a9b3 9fbe 5561 853d
00000230: 5772 a0bd 1b12 883a 8646 20be a985 713e
00000240: 75ca c63d d1af d33c 5561 41be 8170 79bd
00000250: dfd2 223d 3bc1 1f3e 456b 153e 3828 c0bd
00000260: 1dda 323d be04 da3d 49a4 45be 3456 4bbe
00000270: a948 bebd 929f 5dbe 1466 bf3c d4e8 283d
00000280: 89de 28bd 7695 47bd 418d 89bd a53a 563d
00000290: aa8d 033c c14b 8e3d af03 69bd 715c 68be
000002a0: f86c 5dbd 44e2 0cbc 1958 133e 2792 aa3d
000002b0: e5c8 eabc bb4f d33c a399 f83c eca2 0abc
000002c0: 4f73 c73c 86fb c8bd 769e 0b3e b51f aebc
000002d0: 3c69 16be 7654 313d 51ef 85bd 7782 bb3b
000002e0: b91b 27bd 82fa 8cbe 83d8 fb3d 503b c83d
000002f0: 543e 05be a3cf 5dbd 7bf5 01be 0404 d8bd
00000300: abd4 3b3c e68d 97be 4e20 893d 80a5 41be
00000310: e6a1 92bd 49e8 51be 4e87 613e b8f1 6cbc
00000320: 8767 0dbe a22f 0c3d 527a 203c 7be6 563c
00000330: f0fc 6fbe 8cb6 ed3d 2259 6abe 772e 33be
00000340: f2b4 a83d 6d80 16bd 66b0 43bd 5af2 003e
00000350: ca0b afbc d726 0cbe 31e6 b2bd cc1f cdbc
00000360: fe5f d3bc 4a36 9c3d b9b3 013e 528b 4a3e
00000370: d95d aabd 1ff1 43be 62d4 0d3b b3d3 283e
00000380: 3ce4 32be b8b0 39bc 73e2 353d 4db8 7f3e
00000390: 13a7 bd3d 0e63 2fbc 2d19 4a3c c00e f43d
000003a0: b9a3 17bd 7591 acbd e9d6 0cbb ae6c 7d3d
000003b0: 8aad 563d 9c85 20be 2e06 3bbe 2b4e 35bd
000003c0: 1888 073e 835e 66bd df1f 5fbe dd22 44be
000003d0: c697 16bd 0e97 59bc 6fde 0bbe 3f8b dcbd
000003e0: afd1 f53d f0af 85bd e38b 71be 35fa 00be
000003f0: 887d ea3c 8ddf 8ebe a82f fabd 137d 053e

sequential/conv2d/Conv2D f4 [3, 4, 4, 1]
0.1301631 -0.15547918 -0.28348362 0.11516424 -0.046313073 -0.0045128437 0.14798082 -0.261457
-0.24913527 -0.0409602 -0.18461049 -0.050228503 -0.27702624 0.28361887 0.049308904 0.012102056
-0.07946472 -0.11073557 -0.051053476 -0.22269301 -0.30448705 0.12290122 -0.07526697 0.30454385
0.07966457 -0.0032177172 0.040742677 0.26364473 0.19170527 0.15477395 -0.16147569 0.30164903
0.24993774 0.19514015 0.05635431 0.26072687 0.3890498 0.17644356 0.20885405 0.5688583
0.15917818 0.114668764 0.3499754 0.22539784 -0.060877044 0.19690716 0.33610553 0.24796371
00000000: 7a49 053e ef35 1fbe c424 91be 3bdb eb3d
00000010: c7b2 3dbd 7ae0 93bb 4988 173e b1dd 85be
00000020: 511d 7fbe e2c5 27bd 880a 3dbe 67bc 4dbd
00000030: 62d6 8dbe 7e36 913e 22f8 493d b447 463c
00000040: 66be a2bd 55c9 e2bd 731d 51bd a309 64be
00000050: bae5 9bbe a3b3 fb3d 9225 9abd 2ced 9b3e
00000060: 2e27 a33d 56e0 52bb cbe1 263d 71fc 863e
00000070: 634e 443e 107d 1e3e e259 25be be71 9a3e
00000080: aeef 7f3e d2d2 473e c7d3 663d fe7d 853e
00000090: 8931 c73e 9fad 343e d6dd 553e b3a0 113f
000000a0: 9bff 223e 75d7 ea3d fa2f b33e b1ce 663e
000000b0: 355a 79bd 08a2 493e 0616 ac3e 33ea 7d3e

sequential/conv2d_1/Conv2D f4 [2, 2, 2, 3]
0.20674695 0.042053934 -0.36206785 -0.15138419 0.20007153 0.33110633 -0.63430685 -0.55663717
-0.0684789 0.0836096 -0.1265859 0.048064522 0.4638221 -0.64357805 -0.40525553 -0.017631305
0.16484216 -0.23483439 0.18298922 0.27847067 0.11647629 0.36472514 0.49977607 0.29892203
00000000: 79b5 533e bf40 2c3d f560 b9be 7504 1bbe
00000010: 8ddf 4c3e c586 a93e ef61 22bf c67f 0ebf
00000020: aa3e 8cbd 833b ab3d bc9f 01be 4edf 443d
00000030: 177a ed3e 88c1 24bf a77d cfbe 876f 90bc
00000040: 62cc 283e 6d78 70be 8761 3b3e b593 8e3e
00000050: 1f8b ee3d 41bd ba3e a6e2 ff3e 4f0c 993e

sequential/conv2d_1/BiasAdd;sequential/conv2d_1/Conv2D;sequential/conv2d_1/BiasAdd/ReadVariableOp f4 [2]
0.027327657 0.036605574
00000000: 40de df3c baef 153d

sequential/dense_1/MatMul i1 [222, 14] scale=0.007652691 zero_point=0
0.37498185 0.13009575 -0.5050776 -0.58160454 -0.27549687 0.39793995 0.46681416 0.2601915
0.29080227 -0.4362034 0.114790365 0.20662266 -0.114790365 0.27549687 0.022958074 0.31376034
0.31376034 -0.8571014 -0.36732918 0.30610764 0.015305382 0.23723343 0.16070652 0.36732918
0.58925724 -0.5969099 -0.46681416 0.053568836 -0.6581314 0.3367184 -0.23723343 0.22192805
-0.22958073 0.71935296 0.038263455 0.39028725 -0.82649064 -0.6581314 -0.54334104 0.45916146
-0.06122153 0.5356884 -0.3290657 0.045916148 -0.37498185 0.45150876 -0.2601915 -0.07652691
0.48977223 0.35967648 0.56629914 0.06122153 0.24488612 -0.09948499 -0.18366459 -0.48211953
-0.007652691 0.16070652 -0.06887422 -0.29080227 -0.71935296 -0.20662266 -0.29845494 -0.10713767
-0.16070652 -0.06887422 0.19896998 0.030610764 0.35967648 0.47446686 -0.10713767 -0.18366459
-0.3290657 -0.6734368 0.19896998 -0.49742493 0.09948499 -0.5356884 0.15305382 0.9336283
0.114790365 -0.7576164 -0.22192805 0.71170026 0.16070652 -0.28314957 0.20662266 -0.6275207
-0.39793995 -0.091832295 -0.7729218 -0.13009575 0.49742493 0.29845494 0.17601189 0.091832295
-0.39028725 0.6428261 -0.13774844 -0.58925724 0.47446686 -0.3290657 -0.31376034 0.0
-0.07652691 -0.57395184 -0.045916148 -0.8647541 -0.14540114 -0.28314957 -0.07652691 -0.19896998
-0.15305382 -0.74231106 -0.13009575 -0.9106702 0.57395184 0.0 -0.13774844 0.18366459
-0.54334104 -0.091832295 0.2678442 -0.6887422 -0.1683592 -0.49742493 -0.4438561 0.13009575
0.4438561 -0.619868 0.39028725 0.37498185 0.12244306 0.022958074 0.3290657 0.3367184
0.2525388 -0.12244306 0.69639486 -0.45916146 -0.14540114 -0.3367184 -0.18366459 0.038263455
0.007652691 0.29080227 0.7729218 0.007652691 -0.5969099 -0.58925724 -0.46681416 0.07652691
-0.72700566 -0.6810895 0.038263455 -0.053568836 0.38263455 0.35967648 0.20662266 -0.28314957
-0.37498185 0.12244306 -0.80353254 0.12244306 0.38263455 0.29080227 -0.47446686 0.35967648
0.10713767 -0.114790365 -0.13009575 -0.23723343 -0.3367184 -0.38263455 0.32141304 -0.114790365
0.28314957 -0.12244306 -0.06887422 -0.28314957 -0.2525388 -0.84179604 0.24488612 -0.5969099
0.14540114 0.49742493 -0.19896998 -0.6887422 -0.23723343 0.18366459 -0.55099374 -0.29845494
0.58160454 0.35202378 0.45150876 -0.5356884 -0.37498185 0.114790365 -0.21427535 0.5050776
-0.038263455 0.45916146 0.70404756 0.13774844 -0.6275207 0.22192805 0.007652691 0.619868
0.29080227 -0.015305382 -0.47446686 -0.38263455 0.3443711 -0.19896998 -0.3367184 0.46681416
0.4285507 -0.4438561 -0.5050776 -0.4438561 -0.40559262 0.6275207 0.038263455 -0.47446686
-0.09948499 -0.6351734 0.16070652 0.091832295 0.520383 -0.6122153 0.16070652 0.6351734
0.4438561 -0.40559262 -0.55099374 0.10713767 0.22958073 -0.29845494 0.6428261 -0.4285507
-0.23723343 -0.17601189 -0.47446686 -0.42089802 0.35967648 -0.12244306 -0.14540114 -0.5280357
0.015305382 0.71170026 0.31376034 0.045916148 0.37498185 -0.20662266 -0.2678442 -0.09948499
00000000: 3111 beb4 dc34 3d22 26c7 0f1b f124 0329
00000010: 2990 d028 021f 1530 4db2 c307 aa2c e11d
00000020: e25e 0533 94aa b93c f846 d506 cf3b def6
00000030: 402f 4a08 20f3 e8c1 ff15 f7da a2e5 d9f2
00000040: ebf7 1a04 2f3e f2e8 d5a8 1abf 0dba 147a
00000050: 0f9d e35d 15db 1bae ccf4 9bef 4127 170c
00000060: cd54 eeb3 3ed5 d700 f6b5 fa8f eddb f6e6
00000070: ec9f ef89 4b00 ee18 b9f4 23a6 eabf c611
00000080: 3aaf 3331 1003 2b2c 21f0 5bc4 edd4 e805
00000090: 0126 6501 b2b3 c30a a1a7 05f9 322f 1bdb
000000a0: cf10 9710 3226 c22f 0ef1 efe1 d4ce 2af1
000000b0: 25f0 f7db df92 20b2 1341 e6a6 e118 b8d9
000000c0: 4c2e 3bba cf0f e442 fb3c 5c12 ae1d 0151
000000d0: 26fe c2ce 2de6 d43d 38c6 bec6 cb52 05c2
000000e0: f3ad 150c 44b0 1553 3acb b80e 1ed9 54c8
000000f0: e1e9 c2c9 2ff0 edbb 025d 2906 31e5 ddf3

sequential/dense/MatMul i1 [14, 162] scale=0.003063462 zero_point=0
0.09190386 0.012253848 0.20831542 -0.04901539 -0.21137887 -0.033698082 -0.19299811 0.1286654
-0.22056927 -0.08271347 -0.003063462 0.15930003 0.0 -0.058205776 0.052078854 -0.10415771
0.18380772 -0.2266962 0.079650015 0.0 0.0643327 -0.067396164 0.067396164 0.09190386
-0.055142317 0.20218849 0.17155387 -0.03063462 -0.04901539 -0.07352309 0.14091925 0.21444234
-0.036761545 0.08577693 0.006126924 -0.006126924 0.13172886 0.042888466 -0.101094246 -0.20831542
0.03063462 -0.01531731 0.03063462 0.17155387 0.01531731 0.03063462 -0.17155387 -0.13172886
-0.16849041 -0.018380772 0.079650015 -0.07045963 0.21444234 -0.04595193 0.22975965 -0.09190386
0.07045963 0.088840395 0.021444233 0.12253848 -0.101094246 -0.058205776 -0.27571157 -0.29409236
-0.110284634 -0.021444233 -0.110284634 -0.30940965 0.101094246 -0.101094246 0.13785578 0.101094246
0.027571158 -0.003063462 0.06126924 -0.14091925 -0.12253848 0.15930003 -0.04901539 -0.04901539
0.036761545 0.055142317 0.052078854 0.2266962 -0.052078854 -0.039825007 -0.101094246 0.055142317
-0.024507696 0.04901539 -0.16542694 0.2910289 -0.10722117 0.18993464 -0.012253848 -0.06126924
0.07352309 -0.03063462 -0.16236348 0.018380772 -0.052078854 0.17461734 0.039825007 0.021444233
-0.003063462 -0.2971558 -0.027571158 -0.17155387 0.08577693 0.15623656 0.14704618 0.101094246
-0.26039428 -0.039825007 0.01531731 0.027571158 0.009190386 -0.09496732 -0.055142317 -0.033698082
-0.07352309 -0.19299811 -0.012253848 0.1133481 0.03063462 0.17155387 0.042888466 0.058205776
0.119475015 -0.17461734 0.20831542 0.25426733 0.1133481 0.11641155 -0.07045963 -0.09496732
0.039825007 0.012253848 0.0643327 -0.14704618 0.033698082 -0.13479233 -0.26345772 -0.2420135
0.024507696 0.08271347 0.067396164 0.0643327 0.13172886 -0.036761545 -0.09803078 0.033698082
0.033698082 -0.012253848 -0.07352309 0.11641155 -0.11641155 0.033698082 -0.09496732 -0.10722117
-0.16236348 -0.012253848 0.039825007 -0.13479233 -0.2665212 -0.021444233 0.036761545 -0.1531731
0.15623656 -0.1133481 0.10415771 -0.06126924 0.12253848 -0.009190386 0.13479233 0.08271347
-0.12253848 -0.17155387 0.13785578 -0.003063462 -0.01531731 -0.22363272 -0.28796542 0.052078854
-0.006126924 0.079650015 0.15623656 -0.088840395 0.04595193 -0.04901539 0.101094246 0.058205776
0.1133481 0.039825007 -0.18074426 -0.17155387 -0.19299811 0.058205776 0.10415771 0.1286654
0.09190386 -0.07045963 0.09190386 0.101094246 -0.18380772 -0.12560195 0.06126924 0.17461734
0.11641155 0.08271347 -0.10415771 0.08271347 0.036761545 -0.14091925 0.110284634 -0.15930003
0.14398271 0.042888466 -0.08271347 -0.07352309 0.042888466 0.058205776 0.01531731 -0.07045963
0.15623656 -0.052078854 -0.19606157 0.067396164 0.20525195 0.036761545 0.18380772 0.1531731
-0.067396164 -0.08271347 -0.10722117 0.07658655 -0.18074426 0.079650015 -0.027571158 -0.12253848
-0.101094246 0.09496732 0.058205776 -0.25426733 -0.08577693 0.042888466 0.09190386 0.16849041
0.14091925 0.03063462 -0.14091925 -0.2328231 -0.09496732 -0.16236348 -0.13172886 -0.006126924
00000000: 1e04 44f0 bbf5 c12a b8e5 ff34 00ed 11de
00000010: 3cb6 1a00 15ea 161e ee42 38f6 f0e8 2e46
00000020: f41c 02fe 2b0e dfbc 0afb 0a38 050a c8d5
00000030: c9fa 1ae9 46f1 4be2 171d 0728 dfed a6a0
00000040: dcf9 dc9b 21df 2d21 09ff 14d2 d834 f0f0
00000050: 0c12 114a eff3 df12 f810 ca5f dd3e fcec
00000060: 18f6 cb06 ef39 0d07 ff9f f7c8 1c33 3021
00000070: abf3 0509 03e1 eef5 e8c1 fc25 0a38 0e13
00000080: 27c7 4453 2526 e9e1 0d04 15d0 0bd4 aab1
00000090: 081b 1615 2bf4 e00b 0bfc e826 da0b e1dd
000000a0: cbfc 0dd4 a9f9 0cce 33db 22ec 28fd 2c1b
000000b0: d8c8 2dff fbb7 a211 fe1a 33e3 0ff0 2113
000000c0: 250d c5c8 c113 222a 1ee9 1e21 c4d7 1439
000000d0: 261b de1b 0cd2 24cc 2f0e e5e8 0e13 05e9
000000e0: 33ef c016 430c 3c32 eae5 dd19 c51a f7d8
000000f0: df1f 13ad e40e 1e37 2e0a d2b4 e1cb d5fe
